…
><br><span class="line">33</span><br><span class="line">34</span><br><span class="line">35</span><br><span class="line">36</span><br><span class="line">37</span><br><span class="line">38</span><br><span class="line">39</span><br><span class="line">40</span><br><span class="line">41</span><br><span class="line">42</span><br><span class="line">43</span><br><span class="line">44</span><br><span class="line">45</span><br><span class="line">46</span><br></pre></td><td class="code"><pre><span class="line">VGG(</span><br><span class="line">  (features): Sequential(</span><br><span class="line">    (0): Conv2d(3, 64, kernel_size=(3, 3), stride=(1, 1), padding=(1, 1))</span><br><span class="line">    (1): ReLU(inplace=True)</span><br><span class="line">    (2): Conv2d(64, 64, kernel_size=(3, 3), stride=(1, 1), padding=(1, 1))</span><br><span class="line">    (3): ReLU(inplace=True)</span><br><span class="line">    (4): MaxPool2d(kernel_size=2, stride=2, padding=0, dilation=1, ceil_mode=False)</span><br><span class="line">    (5): Conv2d(64, 128, kernel_size=(3, 3), stride=(1, 1), padding=(1, 1))</span><br><span class="line">    (6): ReLU(inplace=True)</span><br><span class="line">    (7): Conv2d(128, 128, kernel_size=(3, 3), stride=(1, 1), padding=(1, 1))</span><br><span class="line">    (8): ReLU(inplace=True)</span><br><span class="line">    (9): MaxPool2d(kernel_size=2, stride=2, padding=0, dilation=1, ceil_mode=False)</span><br><span class="line">    (10): Conv2d(128, 256, kernel_size=(3, 3), stride=(1, 1), padding=(1, 1))</span><br><span class="line">    (11): ReLU(inplace=True)</span><br><span class="line">    (12): Conv2d(256, 256, kernel_size=(3, 3), stride=(1, 1), padding=(1, 1))</span><br><span class="line">    (13): ReLU(inplace=True)</span><br><span class="line">    (14): Conv2d(256, 256, kernel_size=(3, 3), stride=(1, 1), padding=(1, 1))</span><br><span class="line">    (15): ReLU(inplace=True)</span><br><span class="line">    (16): MaxPool2d(kernel_size=2, stride=2, padding=0, dilation=1, ceil_mode=False)</span><br><span class="line">    (17): Conv2d(256, 512, kernel_size=(3, 3), stride=(1, 1), padding=(1, 1))</span><br><span class="line">    (18): ReLU(inplace=True)</span><br><span class="line">    (19): Conv2d(512, 512, kernel_size=(3, 3), stride=(1, 1), padding=(1, 1))</span><br><span class="line">    (20): ReLU(inplace=True)</span><br><span class="line">    (21): Conv2d(512, 512, kernel_size=(3, 3), stride=(1, 1), padding=(1, 1))</span><br><span class="line">    (22): ReLU(inplace=True)</span><br><span class="line">    (23): MaxPool2d(kernel_size=2, stride=2, padding=0, dilation=1, ceil_mode=False)</span><br><span class="line">    (24): Conv2d(512, 512, kernel_size=(3, 3), stride=(1, 1), padding=(1, 1))</span><br><span class="line">    (25): ReLU(inplace=True)</span><br><span class="line">    (26): Conv2d(512, 512, kernel_size=(3, 3), stride=(1, 1), padding=(1, 1))</span><br><span class="line">    (27): ReLU(inplace=True)</span><br><span class="line">    (28): Conv2d(512, 512, kernel_size=(3, 3), stride=(1, 1), padding=(1, 1))</span><br><span class="line">    (29): ReLU(inplace=True)</span><br><span class="line">    (30): MaxPool2d(kernel_size=2, stride=2, padding=0, dilation=1, ceil_mode=False)</span><br><span class="line">  )</span><br><span class="line">  (avgpool): AdaptiveAvgPool2d(output_size=(7, 7))</span><br><span class="line">  (classifier): Sequential(</span><br><span class="line">    (0): Linear(in_features=25088, out_features=4096, bias=True)</span><br><span class="line">    (1): ReLU(inplace=True)</span><br><span class="line">    (2): Dropout(p=0.5, inplace=False)</span><br><span class="line">    (3): Linear(in_features=4096, out_features=4096, bias=True)</span><br><span class="line">    (4): ReLU(inplace=True)</span><br><span class="line">    (5): Dropout(p=0.5, inplace=False)</span><br><span class="line">    (6): Linear(in_features=4096, out_features=1000, bias=True)</span><br><span class="line">  )</span><br><span class="line">  (add_linear): Linear(in_features=1000, out_features=10, bias=True)</span><br><span class="line">)</span><br></pre></td></tr></table></figure><h4 id="方式二"><a href="#方式二" class="headerlink" title="方式二"></a>方式二</h4><p>想要加到其中的classifier里面</p><figure class="highlight python"><table><tr><td class="gutter"><pre><span class="line">1</span><br></pre></td><td class="code"><pre><span class="line">vgg16_true.classifier.add_module
…
